…
v', fuse_encoder=True, gamma=0.5, gpus='0', iterations=10, load_iter=None, load_model_name=None, lr=0.00025, max_train_iters=20000, model_dir='model', num_crops=2, out_dir='output', patch=64, save_codes=False, save_model_name='demo', save_out_img=False, schedule='10000,12000,14000,16000,18000', shrink=2, stack=True, train='data/train', train_mv='data/train_mv', v_compress=True, warp=True)

Creating loader for data/train...
26518 images loaded.
	distance=1/2
Loader for 26518 images (3315 batches) created.
	Encoder fuse level: 1
	Decoder fuse level: 1
	Decoder fuse level: 1
[EncoderCell(
  (conv): Conv2d(9, 64, kernel_size=(3, 3), stride=(2, 2), padding=(1, 1), bias=False)
  (rnn1): ConvLSTMCell(128, 256, kernel_size=(3, 3), stride=(2, 2), padding=(1, 1), hidden_kernel_size=(1, 1))
  (rnn2): ConvLSTMCell(256, 512, kernel_size=(3, 3), stride=(2, 2), padding=(1, 1), hidden_kernel_size=(1, 1))
  (rnn3): ConvLSTMCell(512, 512, kernel_size=(3, 3), stride=(2, 2), padding=(1, 1), hidden_kernel_size=(1, 1))
), Binarizer(
  (conv): Conv2d(512, 8, kernel_size=(1, 1), stride=(1, 1), bias=False)
  (sign): Sign()
), DecoderCell(
  (conv1): Conv2d(8, 512, kernel_size=(1, 1), stride=(1, 1), bias=False)
  (rnn1): ConvLSTMCell(512, 512, kernel_size=(3, 3), stride=(1, 1), padding=(1, 1), hidden_kernel_size=(1, 1))
  (rnn2): ConvLSTMCell(128, 512, kernel_size=(3, 3), stride=(1, 1), padding=(1, 1), hidden_kernel_size=(1, 1))
  (rnn3): ConvLSTMCell(128, 256, kernel_size=(3, 3), stride=(1, 1), padding=(1, 1), hidden_kernel_size=(3, 3))
  (rnn4): ConvLSTMCell(128, 128, kernel_size=(3, 3), stride=(1, 1), padding=(1, 1), hidden_kernel_size=(3, 3))
  (conv2): Conv2d(32, 3, kernel_size=(1, 1), stride=(1, 1), bias=False)
), DecoderCell2(
  (conv1): Conv2d(80, 640, kernel_size=(1, 1), stride=(1, 1), groups=10, bias=False)
  (conv2): Conv2d(640, 1280, kernel_size=(1, 1), stride=(1, 1), groups=10, bias=False)
  (conv3): Conv2d(1280, 5120, kernel_size=(1, 1), stride=(1, 1), groups=10, bias=False)
  (ee1): EarlyExit(
    (exit_head): Sequential(
      (0): PixelShuffle(upscale_factor=2)
      (1): Conv2d(128, 128, kernel_size=(1, 1), stride=(1, 1), bias=False)
      (2): PixelShuffle(upscale_factor=2)
      (3): Conv2d(32, 32, kernel_size=(1, 1), stride=(1, 1), bias=False)
      (4): PixelShuffle(upscale_factor=2)
      (5): Conv2d(8, 8, kernel_size=(1, 1), stride=(1, 1), bias=False)
      (6): PixelShuffle(upscale_factor=2)
      (7): Conv2d(2, 3, kernel_size=(1, 1), stride=(1, 1), bias=False)
    )
  )
  (ee2): EarlyExit(
    (exit_head): Sequential(
      (0): PixelShuffle(upscale_factor=2)
      (1): Conv2d(128, 128, kernel_size=(1, 1), stride=(1, 1), bias=False)
      (2): PixelShuffle(upscale_factor=2)
      (3): Conv2d(32, 32, kernel_size=(1, 1), stride=(1, 1), bias=False)
      (4): PixelShuffle(upscale_factor=2)
      (5): Conv2d(8, 3, kernel_size=(1, 1), stride=(1, 1), bias=False)
    )
  )
  (ee3): EarlyExit(
    (exit_head): Sequential(
      (0): PixelShuffle(upscale_factor=2)
      (1): Conv2d(64, 64, kernel_size=(1, 1), stride=(1, 1), bias=False)
      (2): PixelShuffle(upscale_factor=2)
      (3): Conv2d(16, 3, kernel_size=(1, 1), stride=(1, 1), bias=False)
    )
  )
  (ee4): EarlyExit(
    (exit_head): Sequential(
      (0): PixelShuffle(upscale_factor=2)
      (1): Conv2d(32, 3, kernel_size=(1, 1), stride=(1, 1), bias=False)
    )
  )
  (rnn1): ConvLSTMCell(512, 512, kernel_size=(3, 3), stride=(1, 1), padding=(1, 1), hidden_kernel_size=(1, 1))
  (rnn2): ConvLSTMCell(128, 512, kernel_size=(3, 3), stride=(1, 1), padding=(1, 1), hidden_kernel_size=(1, 1))
  (rnn3): ConvLSTMCell(128, 256, kernel_size=(3, 3), stride=(1, 1), padding=(1, 1), hidden_kernel_size=(3, 3))
  (rnn4): ConvLSTMCell(128, 128, kernel_size=(3, 3), stride=(1, 1), padding=(1, 1), hidden_kernel_size=(3, 3))
  (conv_end): Conv2d(32, 3, kernel_size=(1, 1), stride=(1, 1), bias=False)
), UNet(
  (inc): inconv(
    (conv): double_conv(
      (conv): Sequential(
        (0): Conv2d(3, 32, kernel_size=(3, 3), stride=(1, 1), padding=(1, 1))
        (1): BatchNorm2d(32, eps=1e-05, momentum=0.1, affine=True, track_running_stats=True)
        (2): ReLU(inplace=True)
        (3): Conv2d(32, 32, kernel_size=(3, 3), stride=(1, 1), padding=(1, 1))
        (4): BatchNorm2d(32, eps=1e-05, momentum=0.1, affine=True, track_running_stats=True)
        (5): ReLU(inplace=True)
      )
    )
  )
  (down1): down(
    (mpconv): Sequential(
      (0): MaxPool2d(kernel_size=2, stride=2, padding=0, dilation=1, ceil_mode=False)
      (1): double_conv(
        (conv): Sequential(
          (0): Conv2d(32, 64, kernel_size=(3, 3), stride=(1, 1), padding=(1, 1))
          (1): BatchNorm2d(64, eps=1e-05, momentum=0.1, affine=True, track_running_stats=True)
          (2): ReLU(inplace=True)
          (3): Conv2d(64, 64, kernel_size=(3, 3), stride=(1, 1), padding=(1, 1))
          (4): BatchNorm2d(64, eps=1e-05, momentum=0.1, affine=True, track_running_stats=True)
          (5): ReLU(inplace=True)
        )
      )
    )
  )
  (down2): down(
    (mpconv): Sequential(
      (0): MaxPool2d(kernel_size=2, stride=2, padding=0, dilation=1, ceil_mode=False)
      (1): double_conv(
        (conv): Sequential(
          (0): Conv2d(64, 128, kernel_size=(3, 3), stride=(1, 1), padding=(1, 1))
          (1): BatchNorm2d(128, eps=1e-05, momentum=0.1, affine=True, track_running_stats=True)
          (2): ReLU(inplace=True)
          (3): Conv2d(128, 128, kernel_size=(3, 3), stride=(1, 1), padding=(1, 1))
          (4): BatchNorm2d(128, eps=1e-05, momentum=0.1, affine=True, track_running_stats=True)
          (5): ReLU(inplace=True)
        )
      )
    )
  )
  (down3): down(
    (mpconv): Sequential(
      (0): MaxPool2d(kernel_size=2, stride=2, padding=0, dilation=1, ceil_mode=False)
      (1): double_conv(
        (conv): Sequential(
          (0): Conv2d(128, 256, kernel_size=(3, 3), stride=(1, 1), padding=(1, 1))
          (1): BatchNorm2d(256, eps=1e-05, momentum=0.1, affine=True, track_running_stats=True)
          (2): ReLU(inplace=True)
          (3): Conv2d(256, 256, kernel_size=(3, 3), stride=(1, 1), padding=(1, 1))
          (4): BatchNorm2d(256, eps=1e-05, momentum=0.1, affine=True, track_running_stats=True)
          (5): ReLU(inplace=True)
        )
      )
    )
  )
  (down4): down(
    (mpconv): Sequential(
      (0): MaxPool2d(kernel_size=2, stride=2, padding=0, dilation=1, ceil_mode=False)
      (1): double_conv(
        (conv): Sequential(
          (0): Conv2d(256, 256, kernel_size=(3, 3), stride=(1, 1), padding=(1, 1))
          (1): BatchNorm2d(256, eps=1e-05, momentum=0.1, affine=True, track_running_stats=True)
          (2): ReLU(inplace=True)
          (3): Conv2d(256, 256, kernel_size=(3, 3), stride=(1, 1), padding=(1, 1))
          (4): BatchNorm2d(256, eps=1e-05, momentum=0.1, affine=True, track_running_stats=True)
          (5): ReLU(inplace=True)
        )
      )
    )
  )
  (up1): up(
    (up): UpsamplingBilinear2d(scale_factor=2.0, mode=bilinear)
    (conv): double_conv(
      (conv): Sequential(
        (0): Conv2d(512, 128, kernel_size=(3, 3), stride=(1, 1), padding=(1, 1))
        (1): BatchNorm2d(128, eps=1e-05, momentum=0.1, affine=True, track_running_stats=True)
        (2): ReLU(inplace=True)
        (3): Conv2d(128, 128, kernel_size=(3, 3), stride=(1, 1), padding=(1, 1))
        (4): BatchNorm2d(128, eps=1e-05, momentum=0.1, affine=True, track_running_stats=True)
        (5): ReLU(inplace=True)
      )
    )
  )
  (up2): up(
    (up): UpsamplingBilinear2d(scale_factor=2.0, mode=bilinear)
    (conv): double_conv(
      (conv): Sequential(
        (0): Conv2d(256, 64, kernel_size=(3, 3), stride=(1, 1), padding=(1, 1))
        (1): BatchNorm2d(64, eps=1e-05, momentum=0.1, affine=True, track_running_stats=True)
        (2): ReLU(inplace=True)
        (3): Conv2d(64, 64, kernel_size=(3, 3), stride=(1, 1), padding=(1, 1))
        (4): BatchNorm2d(64, eps=1e-05, momentum=0.1, affine=True, track_running_stats=True)
        (5): ReLU(inplace=True)
      )
    )
  )
  (up3): up(
    (up): UpsamplingBilinear2d(scale_factor=2.0, mode=bilinear)
    (conv): double_conv(
      (conv): Sequential(
        (0): Conv2d(128, 32, kernel_size=(3, 3), stride=(1, 1), padding=(1, 1))
        (1): BatchNorm2d(32, eps=1e-05, momentum=0.1, affine=True, track_running_stats=True)
        (2): ReLU(inplace=True)
        (3): Conv2d(32, 32, kernel_size=(3, 3), stride=(1, 1), padding=(1, 1))
        (4): BatchNorm2d(32, eps=1e-05, momentum=0.1, affine=True, track_running_stats=True)
        (5): ReLU(inplace=True)
      )
    )
  )
  (up4): up(
    (up): UpsamplingBilinear2d(scale_factor=2.0, mode=bilinear)
    (conv): double_conv(
      (conv): Sequential(
        (0): Conv2d(64, 32, kernel_size=(3, 3), stride=(1, 1), padding=(1, 1))
        (1): BatchNorm2d(32, eps=1e-05, momentum=0.1, affine=True, track_running_stats=True)
        (2): ReLU(inplace=True)
        (3): Conv2d(32, 32, kernel_size=(3, 3), stride=(1, 1), padding=(1, 1))
        (4): BatchNorm2d(32, eps=1e-05, momentum=0.1, affine=True, track_running_stats=True)
        (5): ReLU(inplace=True)
      )
    )
  )
)]
/home/kumarak/anaconda3/envs/kkenv2/lib/python3.7/site-packages/torch/optim/lr_scheduler.py:136: UserWarning: Detected call of `lr_scheduler.step()` before `optimizer.step()`. In PyTorch 1.1.0 and later, you should call them in the opposite order: `optimizer.step()` before `lr_scheduler.step()`.  Failure to do this will result in PyTorch skipping the first value of the learning rate schedule. See more details at https://pytorch.org/docs/stable/optim.html#how-to-adjust-learning-rate
…
